…
           6       0.74      0.74      0.74        42

    accuracy                           0.73       658
   macro avg       0.72      0.68      0.69       658
weighted avg       0.73      0.73      0.73       658

roc_auc_score= 0.9338223035099549

AUTOKERAS - MLP

Model: "functional_1"
_________________________________________________________________
Layer (type)                 Output Shape              Param #   
=================================================================
input_1 (InputLayer)         [(None, 1024)]            0         
_________________________________________________________________
tf_op_layer_Cast (TensorFlow (None, 1024)              0         
_________________________________________________________________
dense (Dense)                (None, 1024)              1049600   
_________________________________________________________________
re_lu (ReLU)                 (None, 1024)              0         
_________________________________________________________________
dense_1 (Dense)              (None, 1024)              1049600   
_________________________________________________________________
re_lu_1 (ReLU)               (None, 1024)              0         
_________________________________________________________________
dense_2 (Dense)              (None, 16)                16400     
_________________________________________________________________
re_lu_2 (ReLU)               (None, 16)                0         
_________________________________________________________________
dense_3 (Dense)              (None, 7)                 119       
_________________________________________________________________
classification_head_1 (Activ (None, 7)                 0         
=================================================================
Total params: 2,115,719
Trainable params: 2,115,719
Non-trainable params: 0
_________________________________________________________________

              precision    recall  f1-score   support

           0       0.79      0.44      0.57        34
           1       0.66      0.77      0.71        79
           2       0.85      0.82      0.84       241
…
   macro avg       0.77      0.74      0.75       658
weighted avg       0.78      0.77      0.77       658

roc_auc_score= 0.9527671248845067


AUTOKERAS - CNN

<tensorflow.python.keras.engine.functional.Functional object at 0x7f955025df50>
Model: "functional_1"
_________________________________________________________________
Layer (type)                 Output Shape              Param #   
=================================================================
input_1 (InputLayer)         [(None, 16, 64, 1)]       0         
_________________________________________________________________
tf_op_layer_Cast (TensorFlow (None, 16, 64, 1)         0         
_________________________________________________________________
conv2d (Conv2D)              (None, 10, 58, 256)       12800     
_________________________________________________________________
conv2d_1 (Conv2D)            (None, 10, 58, 512)       6423040   
_________________________________________________________________
dropout (Dropout)            (None, 10, 58, 512)       0         
_________________________________________________________________
global_max_pooling2d (Global (None, 512)               0         
_________________________________________________________________
dropout_1 (Dropout)          (None, 512)               0         
_________________________________________________________________
dense (Dense)                (None, 7)                 3591      
_________________________________________________________________
classification_head_1 (Softm (None, 7)                 0         
=================================================================
Total params: 6,439,431
Trainable params: 6,439,431
Non-trainable params: 0
_________________________________________________________________
Evaluating...
17/17 [==============================] - 0s 6ms/step - loss: 0.4347 - accuracy: 0.8916
Evaluated...
predicting values ...
              precision    recall  f1-score   support
…
 [  0   1   1   1  60   1   0]
 [  2   6   0   1   2  64   0]
 [  0   0   0   1   0   1  40]]
INFO:tensorflow:Assets written to: keras_model_93654.tf/assets
Assets written to: keras_model_93654.tf/assets
best_params= None


AUTOKERAS - CNN2
_________________________________________________________________
Layer (type)                 Output Shape              Param #   
=================================================================
input_1 (InputLayer)         [(None, 16, 64, 1)]       0         
_________________________________________________________________
tf_op_layer_Cast (TensorFlow (None, 16, 64, 1)         0         
_________________________________________________________________
conv2d (Conv2D)              (None, 12, 60, 32)        832       
_________________________________________________________________
dropout (Dropout)            (None, 12, 60, 32)        0         
_________________________________________________________________
conv2d_1 (Conv2D)            (None, 8, 56, 512)        410112    
_________________________________________________________________
dropout_1 (Dropout)          (None, 8, 56, 512)        0         
_________________________________________________________________
conv2d_2 (Conv2D)            (None, 8, 56, 256)        3277056   
_________________________________________________________________
dropout_2 (Dropout)          (None, 8, 56, 256)        0         
_________________________________________________________________
global_max_pooling2d (Global (None, 256)               0         
_________________________________________________________________
dropout_3 (Dropout)          (None, 256)               0         
_________________________________________________________________
dense (Dense)                (None, 7)                 1799      
_________________________________________________________________
classification_head_1 (Activ (None, 7)                 0         
=================================================================
Total params: 3,689,799
Trainable params: 3,689,799
Non-trainable params: 0
_________________________________________________________________
Evaluating...
17/17 [==============================] - 0s 3ms/step - loss: 0.0807 - accuracy: 0.9240
Evaluated...
predicting values ...
              precision    recall  f1-score   support
…
